MEC-topo/MECb/model.pth (torch, 101138 bytes, 12 tensors)

cnn1.weight f4 [16, 4, 1, 1]
0	0xbed6df80	-0.41967392
1	0x3ec3d104	0.38245404
2	0x3e2af914	0.16696578
3	0xbecfbfd6	-0.40576047
4	0xbdf74fd0	-0.1207577
5	0x3ea18694	0.31547987
6	0xbec82b06	-0.39095324
7	0xbe936896	-0.2879073
8	0xc0a51b63	-5.159593
9	0xc0bcb4b0	-5.8970566
10	0xc0a67de6	-5.2028685
11	0xbeedef44	-0.46471608
12	0xbec9438e	-0.39309353
13	0x3edc48a0	0.43024158
14	0x3e9141f2	0.28370625
15	0xbef884e2	-0.48538882
16	0xbea16d02	-0.3152848
17	0xbe8229e4	-0.25422585
18	0x3dcfca48	0.10146004
19	0xbee069f2	-0.4383083
20	0xc0414d02	-3.0203252
21	0xc01c16b6	-2.4388862
22	0xbfee9bc4	-1.8641286
23	0xbec0cb30	-0.3765502
24	0xc040ea95	-3.0143178
25	0xbff9c33a	-1.9512703
26	0xc02b1032	-2.6728635
27	0xbee96fd2	-0.45593125
28	0xc05a7ce4	-3.4138727
29	0xc01def6d	-2.4677384
30	0xc02fc5b4	-2.7464418
31	0xbe0acd78	-0.13554943
32	0xbeb59eac	-0.3547262
33	0xbee35904	-0.4440385
34	0xbea11dfc	-0.3146819
35	0xbe09e8e0	-0.13467741
36	0xc0a4e1bf	-5.152557
37	0xc0b3d719	-5.620007
38	0xc0ba4cd6	-5.8218794
39	0xbd64be40	-0.0558455
40	0xc0a1d517	-5.057262
41	0xc0b52948	-5.661289
42	0xc0b79261	-5.7366185
43	0xbe05ab00	-0.13053513
44	0xc09e4739	-4.946194
45	0xc0af24ec	-5.473257
46	0xc0b5872e	-5.6727514
47	0xbd78dd40	-0.060757875
48	0xc0465ee5	-3.099542
49	0xc0119048	-2.2744312
50	0xc00a46bb	-2.160567
51	0xbe7ea5e8	-0.24867976
52	0xbe8d43de	-0.2759084
53	0x3ec6bdee	0.3881678
54	0x3e56679c	0.20937961
55	0xbeab0ffe	-0.3341064
56	0xc05013d7	-3.251211
57	0xc0034775	-2.0512364
58	0xc00fd2ea	-2.2472482
59	0xbdcbce18	-0.09951419
60	0xc05979a5	-3.3980496
61	0xc01e3d21	-2.472481
62	0xc0072046	-2.1113448
63	0x3e5c3a10	0.21506524

cnn1.bias f4 [16]
0	0xbedf3668	-0.43596196
1	0xbed09a94	-0.40742934
2	0xc0a9ab4a	-5.3021593
3	0x3ec7ff02	0.39061743
4	0xbecacad4	-0.3960787
5	0xc063cffd	-3.5595696
6	0xc07a3a86	-3.909822
7	0xc04d455d	-3.2073586
8	0xbdb1e970	-0.08687103
9	0xc0a3e927	-5.122211
10	0xc0aa0bce	-5.313941
11	0xc09f3998	-4.9757805
12	0xc055b22e	-3.3390002
13	0xbe482b10	-0.19547677
14	0xc080cbc3	-4.0248733
15	0xc04a432a	-3.1603494

cnn2.weight f4 [32, 16, 1, 1]
0	0xbca3c150	-0.01998964
1	0x3d98f418	0.07468432
2	0x40af765e	5.483199
3	0xbe0d41b8	-0.13794601
4	0xbde00c10	-0.10939801
5	0xc05b60f2	-3.427792
6	0xc064f9f3	-3.5777557
7	0xc066470d	-3.5980866
8	0xba1d5c00	-0.0006002784
9	0x40ac2878	5.37994
10	0x40a6d89a	5.2139406
11	0x40afcc44	5.493685
12	0xc05fb97d	-3.4956963
13	0xbe276f9c	-0.1635117
14	0xc05f3edd	-3.4882119
15	0xc05f161c	-3.4857244
16	0x3d522198	0.05130157
17	0x3e092cee	0.13396046
18	0x3e2aa508	0.16664517
19	0xbe1b53da	-0.15168706
20	0xbe3707bc	-0.17874044
21	0x3dd3daf8	0.10344499
22	0xbe318f6e	-0.1733987
23	0x3e172074	0.14758474
24	0xbe1bc78c	-0.1521284
25	0xbda01840	-0.07817125
26	0xbd149f28	-0.036284596
27	0x3d37dd00	0.044888496
28	0xbe57375e	-0.21017215
29	0xbde871d8	-0.11349839
30	0x3e182858	0.1485914
31	0xbe4a1cec	-0.19737595
32	0xbaf8d400	-0.0018984079
33	0x3dd8bdb0	0.10583055
34	0xc0a7adc8	-5.2399635
35	0xbd8ad660	-0.0677917
36	0x3c6821e0	0.014168233
37	0xc0aa4459	-5.320843
38	0xc0aaa374	-5.332453
39	0xc0ab0a14	-5.3449802
40	0x3e72136c	0.23640221
41	0xc0ad6583	-5.4186416
42	0xc0afa0c1	-5.4883733
43	0xc0b337b2	-5.6005487
44	0xc0a867e0	-5.26268
45	0x3e4b86c0	0.19875622
46	0xc0b2d7f7	-5.588863
47	0xc0a7ef0c	-5.2479305
48	0xba1e9600	-0.00060495734
49	0x3bcacc80	0.006188929
50	0xbe451bfc	-0.19248956
51	0xbd96e3c0	-0.073676586
52	0xbdaac904	-0.08339122
53	0xbd9b8410	-0.07593548
54	0xbcfb15d0	-0.03065005
55	0x3e6560d2	0.22400215
56	0xbde9779c	-0.11399767
57	0x3cb4f6d0	0.022090346
58	0x3e21c254	0.15796787
59	0xbe4edd20	-0.2020154
60	0x3e393b26	0.1808897
61	0xbd856a48	-0.06514412
62	0xbe745dd2	-0.23863915
63	0xbe45a9ec	-0.19303101
64	0x3c665340	0.014057934
65	0x3caa1420	0.02076155
66	0x40b49ab9	5.643887
67	0xbde32ec0	-0.11092901
68	0xbcaf8820	-0.021427214
69	0xc0661074	-3.5947542
70	0xc0664f09	-3.598574
71	0xc05268cf	-3.287647
72	0xbd468a78	-0.048471898
73	0x40b4f124	5.654436
74	0x40ae05ae	5.4381933
75	0x40a909b5	5.282435
76	0xc0575840	-3.3647614
77	0xbc10b200	-0.008831501
78	0xc06a59ef	-3.661739
79	0xc06ad6ec	-3.6693678
80	0x3e153a0a	0.14572921
81	0x3e29c2ee	0.16578266
82	0xbd956b50	-0.07295859
83	0xbd3c3fb0	-0.045959175
84	0x3e0026ce	0.12514803
85	0xbd29be08	-0.041440994
86	0xbe0df624	-0.13863426
87	0xbe7bbb32	-0.24583128
88	0x3d1a6d60	0.037701964
89	0x3e17c956	0.14822897
90	0x3de5c9d0	0.11220133
91	0x3dfe34ac	0.1241239
92	0xbe706e8c	-0.2347967
93	0xbe05a53c	-0.13051313
94	0xbe1e9532	-0.15486601
95	0xbc720400	-0.0147714615
96	0xbb040180	-0.0020142496
97	0xbe4fac44	-0.20280558
98	0x40a8b51b	5.2721076
99	0xbe547c8a	-0.20750633
100	0xbd4b7ff0	-0.049682558
101	0xc06bb07a	-3.6826463
102	0xc057f841	-3.3745272
103	0xc056d6a3	-3.3568504
104	0xbe139950	-0.14413953
105	0x40b0e245	5.527621
106	0x40a5d11c	5.181776
107	0x40b3be8a	5.617009
108	0xc056deb4	-3.3573427
109	0x3e245bf0	0.16050696
110	0xc0647eb2	-3.5702329
111	0xc05dcdb4	-3.4656801
112	0x3e39713e	0.18109605
113	0xbe359740	-0.17733479
114	0x40a7f2db	5.2483954
115	0xbe759642	-0.239831
116	0xbe0cf014	-0.13763458
117	0xc055b413	-3.3391159
118	0xc068674f	-3.6313055
119	0xc058875e	-3.3832622
120	0x3e321ffc	0.17395014
121	0x40b3a672	5.614068
122	0x40ac1f1e	5.3787985
123	0x40aded16	5.435191
124	0xc060ab6e	-3.5104632
125	0x3e21501a	0.15753213
126	0xc06af6ee	-3.6713214
127	0xc068f1dc	-3.639762
128	0xbd8e2308	-0.069402754
129	0x3e429d74	0.19005376
130	0x40a9f8e1	5.3116307
131	0x3d649158	0.055802673
132	0x3dcfaadc	0.10140011
133	0xc05a10ef	-3.4072835
134	0xc06c1200	-3.6885986
135	0xc05adca7	-3.4197176
136	0xbdface2c	-0.122463554
137	0x40b498c7	5.6436496
138	0x40b496dd	5.643416
139	0x40b09d65	5.519213
140	0xc05c93e8	-3.4465275
141	0x3e3d0194	0.18457633
142	0xc0679bb6	-3.6188788
143	0xc064d287	-3.5753496
144	0x3c92f6c0	0.017939925
145	0xbd2a0480	-0.041508198
146	0x40b048b8	5.508877
147	0x3d912e7c	0.07088944
148	0x3e5d9510	0.21638894
149	0xc05b9ddf	-3.4315107
150	0xc05ca925	-3.4478238
151	0xc0604f18	-3.5048275
152	0xbdcf890c	-0.101335615
153	0x40ab832f	5.3597636
154	0x40b41cf1	5.628533
155	0x40ac93d2	5.3930445
156	0xc05c378e	-3.4408908
157	0x3d908e44	0.07058385
158	0xc054370a	-3.3158593
159	0xc05d99a1	-3.4625018
160	0x3e0e9a3a	0.1392602
161	0x3e7b500e	0.24542257
162	0x3da46908	0.080278456
163	0xbd97e99c	-0.07417604
164	0xbe301c86	-0.17198381
165	0x3dff628c	0.12469968
166	0xbe2661e8	-0.16248286
167	0xbe41d768	-0.18929827
168	0xbd96a988	-0.07356554
169	0xbe454a8e	-0.19266722
170	0x3c8bdb10	0.01707223
171	0x3e698110	0.2280314
172	0xbe7d93f8	-0.24763477
173	0xbc2e9b20	-0.010657102
174	0xbdf6e6c8	-0.12055737
175	0x3e35d9e6	0.17758903
176	0x3e469b44	0.19395167
177	0xbe28fc80	-0.16502571
178	0x3e09efe4	0.13470417
179	0xbc857c40	-0.016294599
180	0xbd89d0c0	-0.06729269
181	0xbd4dbdc8	-0.050229818
182	0xbe4af3aa	-0.19819513
183	0x3e596632	0.2123039
184	0x3e0c0606	0.13674173
185	0x3d39c290	0.045351565
186	0xbe737614	-0.23775512
187	0x3e4fbd2a	0.20287004
188	0x3c3d3360	0.011547893
189	0xbe19480a	-0.14968887
190	0x3e067af0	0.13132834
191	0xbdaca44c	-0.08429775
192	0xbd6a9770	-0.05727333
193	0x3d32e818	0.043678373
194	0xc0b3c355	-5.6175942
195	0x3e7f71fa	0.24945822
196	0x3e211fce	0.15734789
197	0xc0b18a88	-5.5481606
198	0xc0aad805	-5.3388696
199	0xc0b4a5e5	-5.645251
200	0xbd3c1530	-0.045918643
201	0xc0a53429	-5.162617
202	0xc0aaec56	-5.3413496
203	0xc0a657ef	-5.198234
204	0xc0a7988b	-5.237371
205	0xbe77e994	-0.24210197
206	0xc0a72cb4	-5.224207
207	0xc0adf5ab	-5.436239
208	0x3d25ea18	0.040506452
209	0x3e4dde82	0.20104411
210	0x3db31e24	0.08745983
211	0x3e1b1d54	0.15147907
212	0x3dc93ec4	0.09826425
213	0xbe3c66da	-0.1839861
214	0xbe16d4c0	-0.14729595
215	0xbe1956cc	-0.14974517
216	0xbd98037c	-0.074225396
217	0xb9060000	-0.00012779236
218	0xbd5a8df0	-0.05335802
219	0x3e3ce416	0.18446383
220	0x3ba90880	0.005158484
221	0xbe30ebfc	-0.17277521
222	0x3e7b76d8	0.24557054
223	0x3d0450c0	0.03230357
224	0xbe0affd2	-0.1357415
225	0xbab61100	-0.0013890564
226	0xc0ac3079	-5.380917
227	0xbd218ff0	-0.03944391
228	0xbdb3aa24	-0.08772686
229	0xc0ade7a3	-5.434526
230	0xc0ac7cce	-5.390235
231	0xc0b1822e	-5.547141
232	0x3d8c56c4	0.06852487
233	0xc0aafa8f	-5.343086
234	0xc0aaab68	-5.3334236
235	0xc0a8b3ba	-5.2719393
236	0xc0a5c3ba	-5.1801424
237	0xbe5a0558	-0.21291101
238	0xc0b4eb1d	-5.6537004
239	0xc0b399a3	-5.6125045
240	0x3e477440	0.1947794
241	0xbddf4de0	-0.10903525
242	0x40ac684d	5.387732
243	0x3dfac1fc	0.12244031
244	0x3dccc5dc	0.09998676
245	0xc05d8f26	-3.461862
246	0xc06d75d6	-3.7103171
247	0xc0669d46	-3.6033492
248	0xbc978f50	-0.018500954
249	0x40af5b85	5.479922
250	0x40ac0d40	5.3766174
251	0x40b1eecd	5.5604005
252	0xc05ea51b	-3.4788272
253	0xbddd6290	-0.10809815
254	0xc05cba86	-3.4488845
255	0xc0544546	-3.316728

cnn2.bias f4 [32]
0	0xc0836ec0	-4.1072693
1	0xbe789a6c	-0.24277657
2	0xc0b17599	-5.545605
3	0x404cd74e	3.2006412
4	0xc0715e1b	-3.7713687
5	0xbd0dda58	-0.034632057
6	0xc07e9dd5	-3.9783833
7	0xc077bd43	-3.8709266
8	0xc0803c2e	-4.007346
9	0xc0825bc8	-4.073704
10	0xc08f8d23	-4.4859786
11	0xbe11cce2	-0.14238313
12	0xc0b14f58	-5.5409355
13	0xc08ee741	-4.465729
14	0xc0b32a2c	-5.598898
15	0xc08334c6	-4.100192
16	0xc0ae59d5	-5.448466
17	0xc0a95785	-5.2919335
18	0xbe74999c	-0.23886722
19	0xbdf08960	-0.11744952
20	0xc095cb4e	-4.6810675
21	0xc0b16314	-5.5433445
22	0xc0961d97	-4.691112
23	0xbe5e445c	-0.21705765
24	0xc0b3df03	-5.620973
25	0xbe5a989a	-0.21347275
26	0x4063bf47	3.5585496
27	0xbe377634	-0.17916185
28	0xbdbe2eb8	-0.09286255
29	0xc0acd856	-5.401408
30	0xc079caea	-3.90301
31	0xbd5ea600	-0.05435753

fc1.weight f4 [100, 32]
0	0x3d4c7f5c	0.049926147
1	0x3c0df0b0	0.008663341
2	0x3d9b10ea	0.075715855
3	0xc0992d2b	-4.7867637
4	0xbe1a51f9	-0.15070333
5	0xbce1e290	-0.027573854
6	0xbe278442	-0.16359046
7	0xbd001884	-0.03127338
8	0xbdd07f3a	-0.101805165
9	0xbd879cec	-0.06621727
10	0xc095e031	-4.683617
11	0xbd919bf6	-0.07109825
12	0x3cf15298	0.02945833
13	0xc094974b	-4.6434684
14	0x3dfef8d2	0.124498025
15	0xbde329d5	-0.11091963
16	0xbe0ed494	-0.1394828
17	0xbd952dc7	-0.07284122
18	0x3dd80efe	0.105497345
19	0xbe0853b0	-0.13313174
20	0xbcf0ca90	-0.029393464
21	0x3e0f0f93	0.13970785
22	0xbcf34418	-0.029695556
23	0xbdbe9864	-0.0930641
24	0xbe200fb6	-0.15630993
25	0xbda0b288	-0.07846552
26	0xc0940143	-4.625154
27	0x3d264450	0.04059249
28	0x3ddcd58a	0.10782917
29	0xbd3a0360	-0.045413375
30	0x3dfa0d8e	0.122096166
31	0x3deef866	0.11668472
32	0xbd95167c	-0.07279679
33	0xbdc2e246	-0.095158145
34	0x3c83e910	0.016102344
35	0xc0c75c6a	-6.230031
36	0x3da3fcb6	0.08007185
37	0xbe3434a4	-0.17598206
38	0xbbe608e0	-0.007020101
39	0xbda8625b	-0.08221885
40	0x3dde7c06	0.10863499
41	0xbdc2c361	-0.09509922
42	0xbe0c179e	-0.13680884
43	0x3dfae58a	0.12250812
44	0x3d48cba4	0.04902233
45	0x3cac0358	0.020997688
46	0x3c847518	0.016169116
47	0xbda16453	-0.078804635
48	0x3d9b47e2	0.0758207
49	0xbd275828	-0.040855557
50	0x3c0e9e10	0.008704677
51	0x3e0548c7	0.13016044
52	0xbe12f1dd	-0.14350076
53	0x3c6861f0	0.014183506
54	0x3e0b17db	0.13583319
55	0x3d9633ba	0.07334085
56	0xbbb53ea0	-0.005531147
57	0x3df9b41a	0.12192555
58	0xc0c81921	-6.2530675
59	0xbe25a1af	-0.16174959
60	0xbcb11ee8	-0.021621183
61	0xbdfc085b	-0.12306281
62	0xbdab7e9a	-0.08373757
63	0x3dac5ca2	0.08416106
64	0xc0b07e1e	-5.515395
65	0xbd248f8c	-0.04017596
66	0xc0ac094a	-5.376134
67	0x3dcbd9ee	0.09953676
68	0xc0a8ee37	-5.279079
69	0xbdddfdee	-0.10839449
70	0xc0a9dae3	-5.3079696
71	0xc0b10e98	-5.5330315
72	0xc0ae56f6	-5.4481153
73	0xc0adc386	-5.4301176
74	0xbdf2a932	-0.11848678
75	0x3dffc242	0.124882236
76	0xc0a98e24	-5.298601
77	0xbd5b976e	-0.05361121
78	0xc0b020ef	-5.50402
79	0xc0ae4b82	-5.4467173
80	0xc0a9b816	-5.3037214
81	0xc0a916cd	-5.2840333
82	0xbca0da18	-0.019635245
83	0x3dfeb02e	0.12435947
84	0xbde8a869	-0.11360247
85	0xc0aac68f	-5.336738
86	0x3d7187e4	0.058967486
87	0xbdbd3f6e	-0.09240614
88	0xc0a83ad0	-5.2571793
89	0xbd9c5d01	-0.076349266
90	0x3e0c1085	0.13678177
91	0x3dba84d2	0.09107365
92	0x3d934122	0.071901575
93	0xc0aae730	-5.340721
94	0xc0abaf6b	-5.3651633
95	0xbd89cd15	-0.067285694
96	0x3ddf33de	0.10898565
97	0xbd231538	-0.039815158
98	0x3d48d1c0	0.04902816
99	0xc0e33157	-7.099773
100	0x3df9ef02	0.1220379
101	0xbcef23f0	-0.029191941
102	0xbe319c8a	-0.17344871
103	0xbe2ee33d	-0.17078872
104	0x3db93bd6	0.09044616
105	0xbe27c911	-0.16385294
106	0x40980751	4.750893
107	0x3d9898a6	0.074509904
108	0x3d9eb66a	0.077496365
109	0x40968e2f	4.7048564
110	0xbe0dae12	-0.13835934
111	0xbcf92f28	-0.030417994
112	0xbcd56590	-0.026049405
113	0xbc38aaf0	-0.011271223
114	0xbcc7d8e8	-0.024395421
115	0x3e30f641	0.17281438
116	0xbdc4455c	-0.09583542
117	0xbcb934f8	-0.022608265
118	0xbd703ce0	-0.058651805
119	0x3e1196ad	0.14217634
120	0x3d472128	0.048615605
121	0x3e3259e3	0.17417102
122	0xc0c8866a	-6.266408
123	0xbdcd3981	-0.100207336
124	0x3dc1846a	0.09449084
125	0xbe011360	-0.12605047
126	0xbe2a0484	-0.16603285
127	0xbda1511d	-0.07876799
128	0xbe22b17f	-0.15888022
129	0xbdc6b0be	-0.0970168
130	0xbdec311c	-0.11532804
131	0xc0f806fc	-7.7508526
132	0xbe1df98a	-0.15427223
133	0xbe33ad38	-0.17546546
134	0x3e2fab6b	0.17155235
135	0x3de04812	0.10951246
136	0xbd68b2a2	-0.056810983
137	0xbdb35d95	-0.08758084
138	0x3d37bf28	0.044860035
139	0xbdcf8c04	-0.10134128
140	0xbdd9a8fa	-0.10627933
141	0xbe1db094	-0.1539939
142	0x3e03dfeb	0.12878387
143	0x3c958b98	0.01825504
144	0xbd80670d	-0.062696554
145	0x3d8aa884	0.06770423
146	0x3e32c767	0.17458878
147	0xbd1ff17c	-0.039048657
148	0xbd377448	-0.04478863
149	0xbdcad99f	-0.09904789
150	0xbd9804fb	-0.07422825
151	0xbc7486d0	-0.01492472
152	0xbd87177a	-0.06596275
153	0x3d01a854	0.03165467
154	0xc0fe80af	-7.9532084
155	0xbe12b1f4	-0.14325696
156	0xbda67b45	-0.081289805
157	0x3e052633	0.13002853
158	0xbd63282c	-0.055458233
159	0xbd623854	-0.0552295
160	0xc0afa454	-5.4888096
161	0x3dafdc5a	0.085869506
162	0xc0b248aa	-5.57137
163	0x3d09f894	0.03368433
164	0xc0aba7d7	-5.3642383
165	0xbe1b31cb	-0.15155713
166	0xc0add743	-5.432527
167	0xc0aa5f23	-5.3241134
168	0xc0a817d0	-5.252907
169	0xc0ab42e2	-5.3519144
170	0x3d7196ac	0.058981583
171	0x3cecf150	0.02892366
172	0xc0aa072c	-5.3133755
173	0x3d8fbeec	0.07018837
174	0xc0aa79ac	-5.3273525
175	0xc0b13060	-5.537155
176	0xc0b03298	-5.506176
177	0xc0ada19b	-5.425977
178	0xbe222603	-0.15834813
179	0x3d0eaa78	0.03483054
180	0x3d6f41d4	0.058412388
181	0xc0aa7fff	-5.3281245
182	0xbe1b4f4a	-0.15166965
183	0xbdba766d	-0.09104619
184	0xc0ad6c67	-5.4194827
185	0x3d886f5c	0.06661865
186	0xbda815e1	-0.08207298
187	0xbe14c279	-0.1452731
188	0xbb935ac0	-0.004496902
189	0xc0aebc4a	-5.4604845
190	0xc0ac436e	-5.383231
191	0x3cdc5a48	0.026898518
192	0xc09a130a	-4.814824
193	0xbe034474	-0.12819082
194	0x3db1bda6	0.08678751
195	0xbe11dcdc	-0.14244407
196	0xc092b9fe	-4.585204
197	0x3d44bb60	0.048030257
198	0xc0930781	-4.594666
199	0xc08f8c0c	-4.4858456
200	0xc0912a87	-4.5364413
201	0xc094d7f4	-4.6513615
202	0x3dc039de	0.09386037
203	0xbd424b64	-0.04743518
204	0xbd4c8420	-0.04993069
205	0xbce5a3e0	-0.028032243
206	0xbc693ac0	-0.0142351985
207	0xc099e254	-4.808878
208	0xbd7e6a42	-0.062113054
209	0x3c9fec60	0.019521892
210	0xbd77e4d8	-0.060520977
211	0xbd1b92bc	-0.037981734
212	0xc09a4258	-4.8205986
213	0xbe1c014a	-0.15234867
214	0xc0997cf1	-4.7965016
215	0x3dc07b56	0.093985245
216	0xbd8e7957	-0.069567375
217	0xbe104c82	-0.14091685
218	0x3ddff68a	0.109356955
219	0xbb246440	-0.0025084168
220	0xbd0a9e50	-0.033842385
221	0xbd049c20	-0.032375455
222	0xc09487ee	-4.641593
223	0x3db5bfe2	0.08874489
224	0xc0aec77d	-5.4618516
225	0xbd8a4bf9	-0.06752772
226	0xc0a83674	-5.256647
227	0x3d0c9598	0.03432235
228	0xc0af833d	-5.4847703
229	0xbdd11456	-0.10208957
230	0xc0b12fc2	-5.53708
231	0xc0af1280	-5.4710083
232	0xc0ac1eb4	-5.378748
233	0xc0ab3253	-5.349893
234	0x3d2c3710	0.0420447
235	0xbdfd5583	-0.12369826
236	0xc0ac14b5	-5.3775277
237	0x3dfae882	0.122513786
238	0xc0a8a0a3	-5.269609
239	0xc0ada8ac	-5.42684
240	0xc0a814f1	-5.2525563
241	0xc0afec19	-5.4975705
242	0xbda397a3	-0.07987907
243	0xbe073b58	-0.13206232
244	0x3b4d3bc0	0.0031316131
245	0xc0b2758e	-5.57685
246	0xbccfa830	-0.025348753
247	0xbd41cb08	-0.047312766
248	0xc0ab6679	-5.356259
249	0x3dc4d43a	0.096107915
250	0xbc5c61f0	-0.0134510845
251	0xbdbcecab	-0.09224828
252	0x3ddd55a6	0.10807352
253	0xc0a8a0b7	-5.2696185
254	0xc0addec7	-5.4334445
255	0xbd7b46b2	-0.061346717

fc1.bias f4 [100]
0	0xc091a0ed	-4.5508943
1	0xc0cb00c2	-6.3438425
2	0xc0b23cd8	-5.569927
3	0x3f3db1f3	0.74099654
4	0xc0efb6de	-7.4910727
5	0xc0b200ee	-5.5626135
6	0xc09360ca	-4.605565
7	0xc0af6dc9	-5.4821515
8	0xc096460c	-4.6960506
9	0xc091ebc6	-4.560031
10	0xc0b2517d	-5.5724473
11	0xc0ac55c1	-5.385468
12	0xbdda4ccb	-0.10659178
13	0xbe210ed1	-0.15728308
14	0xc0b21c56	-5.565959
15	0xbd978175	-0.07397739
16	0xc01d9d86	-2.4627395
17	0xc0b18987	-5.548038
18	0xc09fe23b	-4.996366
19	0xbe135682	-0.14388469
20	0xc08ee251	-4.4651265
21	0xc0b0ea9c	-5.528639
22	0xc08b3a94	-4.3509007
23	0xc08ce2e1	-4.402695
24	0xc010f469	-2.2649176
25	0xc0887048	-4.263706
26	0xc0aeec6e	-5.466361
27	0xc0124f41	-2.2860873
28	0xc0a7a312	-5.238656
29	0xc0ad2dd6	-5.411845
30	0xc08a7578	-4.3268394
31	0xbe005c98	-0.12535322
32	0xc090f847	-4.5303073
33	0x3f3df99e	0.7420901
34	0xc08eaeee	-4.4588537
35	0xc0b29005	-5.5800805
36	0xc0a9c987	-5.3058505
37	0xc0152432	-2.3303342
38	0xc0ac044d	-5.375525
39	0xc014c3a6	-2.3244414
40	0xc091355f	-4.537765
41	0xc09404f1	-4.625603
42	0xc0888539	-4.2662625
43	0xc0ab686d	-5.3564973
44	0xc0999ca9	-4.8003736
45	0x3f415e4a	0.755345
46	0x3f08f7bb	0.53503007
47	0x3f4abd45	0.7919505
48	0xc0a7ce56	-5.2439375
49	0xc08e0e70	-4.4392624
50	0xc09a2c6d	-4.817923
51	0xc0aaf809	-5.3427777
52	0xc08ba00d	-4.3632874
53	0xc0abae5a	-5.365033
54	0xc0f271ff	-7.5764155
55	0xc08d6bae	-4.4193945
56	0xbdbdfbe6	-0.092765614
57	0xc0a88594	-5.266306
58	0x3eedb370	0.46425962
59	0xc099b7c8	-4.803684
60	0xc089979d	-4.2997575
61	0xc0ab9f86	-5.363223
62	0xc0899e15	-4.300547
63	0xc013939c	-2.3058844
64	0xc089540f	-4.291511
65	0xc08af22d	-4.3420625
66	0x3fb19d8c	1.3876204
67	0xbe10e7cf	-0.14150928
68	0xc0b262a0	-5.574539
69	0xbe3205dc	-0.17385048
70	0xc08cb30c	-4.3968563
71	0xc08a6fda	-4.3261538
72	0x3f2aada6	0.66671216
73	0xc08ace4b	-4.3376822
74	0xbe2950b5	-0.16534694
75	0xc095add6	-4.67747
76	0xbe25ebd9	-0.1620325
77	0xc08940b3	-4.289148
78	0xc09997e1	-4.79979
79	0xc0ee7e64	-7.4529285
80	0xc0912cf1	-4.536736
81	0xc0ade093	-5.433664
82	0xc0176765	-2.3656857
83	0xc0b14b44	-5.5404377
84	0xc016ac25	-2.3542569
85	0xc0b20d4f	-5.5641246
86	0xc092537b	-4.5726905
87	0xc0ade9c0	-5.434784
88	0xc08ba457	-4.363811
89	0x3f1dcbf0	0.6163931
90	0xc0a5db3a	-5.183011
91	0xc08f483e	-4.4775686
92	0xc0a8a7c4	-5.270479
93	0xc09a02c9	-4.81284
94	0xc08b4c63	-4.3530746
95	0xc09350f1	-4.6036305
96	0xc08c7e30	-4.3904037
97	0xc08fcce4	-4.493761
98	0x3f3a5e11	0.72799784
99	0xc08d0254	-4.406534

fc2.weight f4 [100, 100]
0	0x3c877338	0.016534433
1	0x3d808ead	0.06277213
2	0xc0ad31c3	-5.4123244
3	0x3c7703f0	0.015076622
4	0x3db977d7	0.09056061
5	0xc0ab12af	-5.3460307
6	0x3d74576a	0.059653677
7	0xc0aa1474	-5.3149967
8	0x3dbfcd85	0.093653716
9	0xbd847b6d	-0.06468854
10	0xc0ae189b	-5.4405036
11	0xc0ab08f9	-5.3448453
12	0xbdae296f	-0.085039966
13	0xbcbed498	-0.023294732
14	0xc0aba3ee	-5.363761
15	0xbd7945f3	-0.060857724
16	0x3c382770	0.011239871
17	0xc0acb9ed	-5.397696
18	0xbd8c87f8	-0.068618715
19	0xbd204fda	-0.039138652
20	0xc0ae767d	-5.451964
21	0xc0aaf30b	-5.3421683
22	0xc0af0e14	-5.4704685
23	0xc0aeb479	-5.4595304
24	0x3d93230d	0.0718442
25	0xc0abe0ef	-5.3712077
26	0xc0aaa5b7	-5.332729
27	0xbd826dd5	-0.06368605
28	0xc0ad7626	-5.4206724
29	0xc0aad830	-5.33889
30	0xc0aea488	-5.4575844
31	0x3daa71b5	0.08322469
32	0xc0ad8a53	-5.4231353
33	0x3d8657f1	0.06559742
34	0xc0ae8943	-5.4542556
35	0xc0ace347	-5.402744
36	0xc0ab83ea	-5.359853
37	0x3d8fe291	0.07025636
38	0xc0ac10ca	-5.3770494
39	0x3dc89c57	0.097954445
40	0xc0ae9c1d	-5.456557
41	0x3d7379ca	0.05944232
42	0xc0ab0562	-5.344407
43	0xc0aa1375	-5.314875
44	0xbda768b5	-0.08174268
45	0xbd82f084	-0.06393531
46	0xbdbbbec7	-0.09167247
47	0xbd94f47e	-0.07273196
48	0xc0ac725a	-5.388959
49	0xc0af129a	-5.4710207
50	0x3d9f371f	0.077741854
51	0xc0af54a6	-5.479083
52	0xc0ab6f14	-5.3573093
53	0xc0ac44c9	-5.3833966
54	0xbdab1c8e	-0.08355056
55	0xc0aeda89	-5.4641767
56	0x3d51068e	0.05103164
57	0xc0af999f	-5.4875026
58	0xbd9a0268	-0.0751999
59	0xbd6da820	-0.058021665
60	0xc0ab71bf	-5.357635
61	0xc0ac7033	-5.388696
62	0xc0abeee9	-5.372914
63	0x3d81ed5f	0.06344103
64	0x3da70ea9	0.08157093
65	0xc0ab7a93	-5.3587127
66	0xbd3562ed	-0.044283796
67	0x3c7967d0	0.015222505
68	0xc0ad38d5	-5.4131875
69	0xbc2a3bb0	-0.010390207
70	0xc0add64e	-5.4324102
71	0xc0ae5881	-5.4483037
72	0xbd588e20	-0.052869916
73	0xc0af460c	-5.4773006
74	0xbd6c5bd3	-0.057704758
75	0xbda82735	-0.08210603
76	0xbc346bb0	-0.011012003
77	0xc0ad2b04	-5.411501
78	0x3dc8a53f	0.09797143
79	0x3da96113	0.082704686
80	0xbdc7570d	-0.097334005
81	0xc0b000ad	-5.5000825
82	0x3d31cf02	0.04341031
83	0xc0aa53c7	-5.3227267
84	0x3d0b1662	0.033956893
85	0xc0b0068a	-5.500798
86	0xc0ad79ee	-5.421134
87	0xc0aec788	-5.461857
88	0xc0aad30d	-5.338263
89	0xbd8b3805	-0.06797794
90	0xbcd40b60	-0.02588433
91	0xc0aad9e6	-5.339099
92	0xc0a9f374	-5.3109684
93	0x3d1d34e2	0.03838051
94	0xc0ad2b48	-5.4115334
95	0x3d87d651	0.066326745
96	0xc0abdacf	-5.37046
97	0xc0af1949	-5.4718366
98	0x3b866da0	0.004102424
99	0xc0ada93a	-5.4269075
100	0x3cc4a88c	0.02400615
101	0x3d6e6762	0.058204062
102	0x3d855dc7	0.06512027
103	0xc09687b5	-4.704066
104	0x3db01b87	0.085990004
105	0x3dc0de89	0.09417445
106	0xbd8599ee	-0.065235004
107	0x3ccd69fc	0.025074951
108	0xbd15f32a	-0.036608852
109	0x3c504810	0.012712494
110	0xbb0d4f00	-0.002156198
111	0xbd7a9fed	-0.061187673
112	0xbd70134a	-0.058612145
113	0x3d94e633	0.072704695
114	0xbd9720a8	-0.073792756
115	0x3d3fa3da	0.04678712
116	0xc0978ec7	-4.736179
117	0xbd15ef60	-0.03660524
118	0xbdbe9e13	-0.09307494
119	0x3d319602	0.04335595
120	0xbd52f4bd	-0.051502932
121	0xbda6554e	-0.08121739
122	0xbd2cd640	-0.042196512
123	0x3c50a230	0.012733981
124	0xc097b00b	-4.7402396
125	0x3da1559d	0.078776576
126	0xbdbb921f	-0.0915873
127	0xc09a88e2	-4.8292093
128	0x3d9cc1a9	0.07654125
129	0x3db7e287	0.089787535
130	0x3d4a66e2	0.049414523
131	0x3d478bc2	0.048717268
132	0xbd961752	-0.07328667
133	0xc0979119	-4.736462
134	0x3ca40d08	0.020025745
135	0xbd4f1893	-0.050560545
136	0xbb99e260	-0.0046961755
137	0xc098fd0a	-4.7808886
138	0xbc893f40	-0.016753793
139	0xc0965838	-4.698269
140	0x3d821dcd	0.0635334
141	0xbda0d502	-0.07853128
142	0xbd0f1890	-0.034935534
143	0xbd5d52b0	-0.054033935
144	0x3d98d2af	0.0746206
145	0xc0976335	-4.73086
146	0xc0990f84	-4.783144
147	0xc0984e24	-4.7595387
148	0xbb9c1a20	-0.0047638565
149	0xbc135928	-0.0089934245
150	0xc09a0738	-4.813381
151	0x3da1f183	0.07907393
152	0xbdaac10b	-0.08337601
153	0xbdcc6d92	-0.099818364
154	0x3cd5c464	0.026094623
155	0xbd82868a	-0.063733175
156	0x3d93d86d	0.07219014
157	0xbced1aa0	-0.02894336
158	0xc096e831	-4.7158437
159	0x3c19c290	0.009384766
160	0x3d36ae26	0.044599675
161	0xbdc37af2	-0.09544934
162	0xbc7cd550	-0.015431717
163	0xc0971e3c	-4.7224407
164	0xc0952530	-4.6607895
165	0xbdc177e7	-0.09446698
166	0xc095427d	-4.6643662
167	0xbdbc7803	-0.09202578
168	0xbd196ac6	-0.037455343
169	0x3ca98220	0.020691931
170	0x3c2405f0	0.010011181
171	0x3d84ddbf	0.06487607
172	0xc0963019	-4.6933713
173	0xbdc302b3	-0.09521999
174	0x3d34372e	0.043997936
175	0xbd9bf8a8	-0.07615787
176	0xbd8746ed	-0.06605325
177	0x3d8d6045	0.069031276
178	0xbd8e2ee8	-0.069425404
179	0x3c135798	0.008993052
180	0xbdbc16f7	-0.09184068
181	0xbdb728df	-0.089433424
182	0xc094b5c7	-4.6471896
183	0xbd02e2aa	-0.031954445
184	0xc098b6cd	-4.7723145
185	0x3d65aa2e	0.0560705
186	0x3d846859	0.06465215
187	0xbda42bf6	-0.080161974
188	0x3d98b739	0.07456822
189	0xc0978ea7	-4.7361636
190	0xbb3b6740	-0.0028595477
191	0xbd6877ca	-0.056754865
192	0x3d8e1771	0.06938065
193	0xc09656db	-4.6981025
194	0xbd2c2423	-0.04202665
195	0x3d3eda7e	0.04659509
196	0xbb77c160	-0.003780447
197	0x3cc2b320	0.023767054
198	0xc0980106	-4.750125
199	0xbcf85148	-0.030312195
200	0x3da1de51	0.079037316
201	0x3d8f7245	0.07004217
202	0x3c7a79a8	0.015287794
203	0xbc8711f8	-0.01648806
204	0xbcf55c80	-0.029951334
205	0x3c608ab0	0.013704941
206	0xc0963135	-4.6935067
207	0xbdbed285	-0.09317497
208	0xc0922636	-4.5671644
209	0x3c2bdfe8	0.010490395
210	0xbcdd21e0	-0.026993692
211	0x3d9b558d	0.07584677
212	0x3db63511	0.0889684
213	0xbd74babd	-0.0597484
214	0xbbe0a080	-0.0068550706
215	0xbdbdfaf7	-0.09276383
216	0xc0960d5f	-4.689132
217	0xbd0a5b86	-0.03377869
218	0xbccb15e0	-0.024790704
219	0x3da02d21	0.07821108
220	0xc0962697	-4.6922107
221	0x3c034ad8	0.00801345
222	0xc097a37d	-4.738707
223	0xc09273b4	-4.576624
224	0xc0928b52	-4.579507
225	0xc0948cea	-4.6422014
226	0xbb076200	-0.0020657778
227	0xc0947661	-4.6394506
228	0x3c68e1b0	0.014213964
229	0xbcfdc6ac	-0.030978523
230	0xc093681c	-4.6064587
231	0x3daae7e5	0.083450116
232	0xc0968c68	-4.7046394
233	0xbd95544a	-0.072914675
234	0xc0938890	-4.61042
235	0xbcbc8808	-0.023014084
236	0xbbcc2ce0	-0.0062309355
237	0xc0918ee8	-4.5486946
238	0x3ce10c44	0.027471669
239	0xc09343d8	-4.6020317
240	0xc09463fa	-4.637204
241	0xc096524d	-4.6975465
242	0xc0951746	-4.659091
243	0xbd18a646	-0.037267946
244	0xc093a463	-4.6138167
245	0x3d655d42	0.05599714
246	0x3cbb76b4	0.02288375
247	0xbd5e0e97	-0.054213133
248	0xbc2288a8	-0.009920277
249	0xc093262d	-4.59841
250	0x3c3383d8	0.010956727
251	0x3cc00338	0.023439035
252	0xc0928d24	-4.579729
253	0xbd87918e	-0.06619559
254	0xbb967a00	-0.0045921803
255	0xc097399f	-4.725784

fc2.bias f4 [100]
0	0xc0aa07d9	-5.313458
1	0xc09aa045	-4.832064
2	0xc092c07e	-4.5859976
3	0xc0ad02ec	-5.4066067
4	0xc0a0e65d	-5.0281205
5	0xc09cf03d	-4.904326
6	0xc0af7240	-5.4826965
7	0xc03ae303	-2.9201057
8	0xc0aff98a	-5.4992113
9	0xc0a090b9	-5.0176663
10	0xc09e611b	-4.9493537
11	0xc0ab3306	-5.3499784
12	0xc09e80dc	-4.95323
13	0xc09d81bf	-4.922088
14	0xc09dbaf6	-4.9290724
15	0xc08cde29	-4.402119
16	0xc0240867	-2.5630128
17	0xc0ad4b5c	-5.415449
18	0xc0a2b528	-5.084614
19	0xc0ad5046	-5.416049
20	0xc09e3261	-4.94365
21	0xc08169c8	-4.0441628
22	0xc0ab50bb	-5.353605
23	0xc0d1d791	-6.5575643
24	0xc0ac0b21	-5.3763585
25	0xc0740bb2	-3.8132138
26	0xc0944189	-4.633
27	0xc09fc792	-4.9931116
28	0xc0a8c6fc	-5.27429
29	0xc09a3a92	-4.8196497
30	0xc0a30631	-5.094506
31	0xc097e7ae	-4.747031
32	0xc04272ab	-3.0382488
33	0xc039a543	-2.9007118
34	0xc09885b1	-4.7663198
35	0xc0ae5dcd	-5.4489503
36	0xc0aaf939	-5.3429227
37	0xc0827f1d	-4.0780168
38	0xc09e81bc	-4.9533367
39	0xc01e4472	-2.4729276
40	0xbdb63908	-0.088975966
41	0xc0abf08b	-5.373113
42	0xbcfe3600	-0.031031609
43	0xc0424018	-3.035162
44	0xc097227e	-4.7229605
45	0xc0a084c8	-5.0162086
46	0xc0af733c	-5.4828167
47	0xc0e5969e	-7.174636
48	0xc037ea35	-2.8736699
49	0xc094afcc	-4.6464596
50	0xc097c6e3	-4.743028
51	0xc0ab7573	-5.358087
52	0xc0941daa	-4.628621
53	0xc0d128c4	-6.5362263
54	0xc095132d	-4.658591
55	0xc0960bf5	-4.6889596
56	0xc09c2791	-4.87983
57	0xc0ab6a58	-5.3567314
58	0xc0b01e73	-5.503717
59	0xc0a93cb7	-5.2886615
60	0xc0979554	-4.7369785
61	0xc0a2445a	-5.0708437
62	0xc0a103d5	-5.031718
63	0xc0ac1573	-5.3776183
64	0xc0e17352	-7.045327
65	0xc09d9be0	-4.9252777
66	0xc0959cc4	-4.6753864
67	0xc09fcf32	-4.9940424
68	0xc0a95c47	-5.2925143
69	0xc09bb3cc	-4.865698
70	0xc09a5ccd	-4.823828
71	0xc0957871	-4.6709523
72	0xc03ac8f6	-2.9185157
73	0xc095ff26	-4.687396
74	0xc0db1b31	-6.8470693
75	0xbbe3a0b0	-0.0069466457
76	0xc0addc27	-5.433124
77	0xc03a79cd	-2.9136841
78	0xc03a1985	-2.9078076
79	0xc09d56ff	-4.9168696
80	0xc0a243dd	-5.070784
81	0xc0a1e1f3	-5.0588317
82	0xc09470ee	-4.6387854
83	0xc09d4884	-4.915102
84	0xc09e7c84	-4.9526997
85	0xc09482b7	-4.6409564
86	0xc0a1ef4e	-5.060462
87	0xc09a33f3	-4.8188415
88	0xc03c6a0b	-2.9439723
89	0xbcea82b4	-0.028626777
90	0xc0ad5ad2	-5.4173365
91	0xc096372e	-4.694236
92	0xc0984c00	-4.7592773
93	0xc03d23ee	-2.955318
94	0xc09ace51	-4.837685
95	0xc0ab31f4	-5.349848
96	0xc0dc6686	-6.887515
97	0xc0ae1ceb	-5.44103
98	0xc0ad3e30	-5.4138412
99	0xc092c1e6	-4.5861692

fc3.weight f4 [100, 100]
0	0x3c9a89b8	0.018864498
1	0x3c08a7c0	0.008340776
2	0x3d67ad3a	0.056561686
3	0xbd82d1bc	-0.0638766
4	0xbda5ebb0	-0.081015944
5	0x3d054e76	0.03254553
6	0x3d087dde	0.03332316
7	0xbd62469d	-0.055243123
8	0xbd08fb94	-0.03344305
9	0x3ccef5cc	0.02526369
10	0x3d154626	0.036443852
11	0xbd7b157d	-0.06129979
12	0x3ce5a704	0.02803374
13	0xbdaf95f3	-0.085735224
14	0xbdb7bf4b	-0.08972033
15	0xc09c381e	-4.8818502
16	0xc09a96ab	-4.830892
17	0x3db8bd99	0.09020538
18	0xbdc051df	-0.09390616
19	0x3d54d7ae	0.0519635
20	0x3ce4dec4	0.027938254
21	0x3d3e944e	0.046528153
22	0x3d2b32c2	0.041796453
23	0x3d0715fa	0.032979943
24	0x3d8e327f	0.06943225
25	0xbc29fea8	-0.010375656
26	0x3d04703e	0.032333605
27	0xbdbfd48a	-0.093667105
28	0x3d5e39e6	0.054254435
29	0xc0999b19	-4.800183
30	0x3ce4862c	0.02789601
31	0xbd41afc7	-0.047286775
32	0xbcf5a578	-0.029986128
33	0xbda95333	-0.08267822
34	0xbb577860	-0.0032878146
35	0x3cd0a564	0.02546949
36	0x3d9f6bab	0.07784208
37	0xbdc0f598	-0.09421843
38	0xbd4ddd7a	-0.050260045
39	0xc0977113	-4.732553
40	0x3c6dd7f0	0.014516816
41	0xbd9b74ad	-0.075906135
42	0xbbc3eb60	-0.0059789866
43	0xbd58afaa	-0.0529019
44	0x3d6cf572	0.057851262
45	0x3d25ecf2	0.04050917
46	0xbdc67f6f	-0.09692275
47	0xc09821ed	-4.7541413
48	0xbcef2934	-0.029194452
49	0xbda2bffa	-0.07946773
50	0x3d578e6e	0.052626066
51	0xbdb55a65	-0.08855132
52	0xbc2d6bf0	-0.010584816
53	0xbd6d3420	-0.05791104
54	0x3d1e9bd2	0.03872282
55	0xbcf76dd4	-0.030203737
56	0xc09badab	-4.8649497
57	0xbd941c3b	-0.07231947
58	0x3c7e8800	0.015535355
59	0x3ccab3cc	0.024743937
60	0x3d229fea	0.039703287
61	0x3d9574b1	0.07297648
62	0x3caf932c	0.021432482
63	0xbce7350c	-0.028223537
64	0xc0985948	-4.7608986
65	0xc0993cf5	-4.788691
66	0x3d9a0b51	0.0752169
67	0xbd19edb7	-0.03758022
68	0xbdaf85bb	-0.08570429
69	0xc0981f57	-4.7538257
70	0xc099c7af	-4.8056254
71	0x3db0fe89	0.08642299
72	0xbdb57a60	-0.08861232
73	0xbd5de0f3	-0.054169606
74	0xc09d708e	-4.9199896
75	0xbcfbf240	-0.030755162
76	0x3d822d8d	0.06356344
77	0xbd3319aa	-0.043725647
78	0xbdb34ccb	-0.087548815
79	0xbd881522	-0.06644656
80	0xbd4c2acd	-0.049845506
81	0x3d9289f3	0.07155218
82	0xbca7ce54	-0.020484127
83	0x3cb640a0	0.022247612
84	0xbd3c79f0	-0.046014726
85	0x3b5ee3a0	0.0034010187
86	0x3d33c256	0.043886505
87	0xc099e3d4	-4.809061
88	0xbb6c4540	-0.0036052018
89	0xbda7a1f8	-0.0818519
90	0x3c0261a8	0.007957853
91	0xbdbee20b	-0.09320458
92	0xbd937752	-0.07200493
93	0x3d2f75fa	0.04283712
94	0xc09aad9f	-4.833694
95	0xbc7e4fd8	-0.015521966
96	0xc099b159	-4.802899
97	0x3d415dae	0.04720848
98	0xbd67561a	-0.056478597
99	0x3ce07be4	0.027402826
100	0xbdb32d78	-0.08748907
101	0xc09aa684	-4.8328266
102	0xbd6261d7	-0.05526909
103	0xbcc16b0c	-0.023610614
104	0xbcc86b80	-0.024465322
105	0x3dcc3b9b	0.09972306
106	0x3d87caf1	0.06630505
107	0xc09908f8	-4.782345
108	0x3d4785e2	0.048711665
109	0xbd247a17	-0.040155496
110	0x3d545e3a	0.051847674
111	0xbd551f2d	-0.052031685
112	0x3d6f3a6a	0.058405317
113	0x3cbbce8c	0.022925638
114	0x3b3e6060	0.0029049143
115	0xc098ac41	-4.771027
116	0x3cb85980	0.022503614
117	0x3c3eff40	0.011657536
118	0xbc0b22d0	-0.008492187
119	0x3d9b766b	0.07590946
120	0xbdb210bb	-0.08694597
121	0x3c294250	0.010330752
122	0xbd8a16ba	-0.06742616
123	0x3d350b22	0.04420007
124	0xbd3d35f0	-0.046194017
125	0xbcc42c60	-0.02394694
126	0xbc821020	-0.01587683
127	0xbc8da688	-0.017291322
128	0xc097e29b	-4.746412
129	0x3ca40728	0.020022944
130	0x3ceb6644	0.028735287
131	0x3ba61280	0.0050681233
132	0xc09a57ce	-4.8232183
133	0xc097a583	-4.738954
134	0x3c747368	0.014920093
135	0xbda5d015	-0.08096329
136	0xbd4ceead	-0.050032306
137	0xbdb7286d	-0.089432575
138	0xbd38fdea	-0.045164026
139	0xbd54e620	-0.051977277
140	0xbdbe3292	-0.09286989
141	0x3cb049ec	0.021519624
142	0x3db0f165	0.08639792
143	0xc095c7c7	-4.680637
144	0xbdb37dc0	-0.08764219
145	0xbcd88638	-0.026431188
146	0xbcc02ac0	-0.023457885
147	0xc0991de5	-4.784899
148	0xc097adcd	-4.739966
149	0xbd8fe8c3	-0.07026818
150	0x3d9c0d03	0.07619669
151	0xbdcc9a57	-0.099903755
152	0x3cf97d24	0.03045518
153	0x3d929041	0.071564205
154	0xc098adb5	-4.7712045
155	0x3c2404e8	0.010010935
156	0xbc95d9b8	-0.018292293
157	0x3d42b67e	0.04753732
158	0x3cd20ca4	0.025640793
159	0xbd7bdfe3	-0.061492812
160	0x3d28144a	0.041034974
161	0x3c48d240	0.012257159
162	0x3c634db0	0.013873503
163	0xbda7b2b0	-0.08188379
164	0xc0953f14	-4.66395
165	0xc099ece2	-4.8101664
166	0xbc768680	-0.015046716
167	0xbdba0eb2	-0.09084834
168	0xc096b1b2	-4.7091913
169	0xbd85e982	-0.06538679
170	0x3c8606c0	0.01636064
171	0x3db62e59	0.08895559
172	0xc096f630	-4.717552
173	0xbc2a2a58	-0.010386072
174	0xc09815c4	-4.752657
175	0x3d5334ee	0.05156415
176	0x3c9bee80	0.019034624
177	0xc098bbc1	-4.772919
178	0xc096bee4	-4.710802
179	0xbd662690	-0.05618912
180	0xbd873594	-0.06602016
181	0xbd8e8e86	-0.06960778
182	0xbd4e7933	-0.050408553
183	0xbd933e7b	-0.071896516
184	0xbd509add	-0.05092894
185	0xbd2e61ca	-0.042573728
186	0xbdbfa63f	-0.09357881
187	0xbd914143	-0.07092526
188	0xc0992a19	-4.786389
189	0xbcaf2518	-0.021379992
190	0x3c6ace90	0.014331475
191	0xbc26dfe8	-0.010185219
192	0x3da105e1	0.078624494
193	0xc095f434	-4.68606
194	0xbd6e7c90	-0.05822426
195	0xbcd0e834	-0.025501348
196	0xc095431c	-4.664442
197	0xbd36a1e7	-0.044587996
198	0x3d978551	0.07398475
199	0x3d9b0b77	0.07570546
200	0x40ab2047	5.34769
201	0x3da57427	0.08078795
202	0xc094a9b2	-4.6457148
203	0x40aafc77	5.3433185
204	0xc066f758	-3.6088467
205	0xc069a1e0	-3.650505
206	0x40aa1447	5.3149753
207	0xc0e0996b	-7.018728
208	0x40ad7fde	5.421859
209	0xc06fe9e2	-3.74865
210	0xc06730c2	-3.612351
211	0x40ae1184	5.439638
212	0xc0703fcb	-3.7538936
213	0xc06c0afa	-3.68817
214	0xc067499d	-3.613868
215	0xbbbc5360	-0.0057472438
216	0xbd407bd7	-0.046993103
217	0x40ac9c29	5.3940625
218	0xc068c5a3	-3.6370628
219	0x40ac1846	5.377963
220	0xc06e401d	-3.7226632
221	0xc09479f5	-4.6398873
222	0x40ab3c53	5.351114
223	0xc070c18b	-3.761813
224	0xbd1e7b07	-0.038691547
225	0xc0957179	-4.6701016
226	0x3d9d8e49	0.07693154
227	0xc068b7a2	-3.636208
228	0xbdca107f	-0.09866428
229	0x3db9102f	0.0903629
230	0xc06482a6	-3.5704741
231	0x3d46b64e	0.048513703
232	0xc0df6ade	-6.9817953
233	0xc0dba42d	-6.863791
234	0x3dc95a59	0.098316856
235	0x40aaa053	5.332071
236	0x40abcfa0	5.369095
237	0xc091aa57	-4.5520434
238	0xc0646d09	-3.569155
239	0x3d9b18cf	0.07573091
240	0xbb4249a0	-0.0029645935
241	0x3cfdff94	0.031005658
242	0xbdab8b53	-0.08376183
243	0xc0e053af	-7.0102153
244	0x3d9a7e19	0.075435825
245	0xc06fff33	-3.7499511
246	0x40aa4c94	5.321848
247	0x3c52af90	0.01285924
248	0xc0dfcdce	-6.9938726
249	0x3db65b21	0.089041
250	0xc097bc61	-4.7417455
251	0x40ad7c88	5.4214516
252	0xc090732a	-4.514058
253	0x3d983be9	0.07433302
254	0xbd97542d	-0.07389102
255	0xc0947e14	-4.6403904

fc3.bias f4 [100]
0	0xc09ae06e	-4.839896
1	0xc099275f	-4.786056
2	0xc0b5ab8a	-5.67719
3	0xc082f213	-4.09205
4	0xc0f042f6	-7.508174
5	0xc0f9a0ce	-7.8008795
6	0xc111a10c	-9.101818
7	0xc09468ef	-4.6378093
8	0xc0b58791	-5.6727986
9	0xc112978c	-9.161999
10	0xc0a77ebe	-5.2342215
11	0xc0e6cb41	-7.2123113
12	0xc0a4bea2	-5.1482706
13	0xc100915f	-8.035491
14	0xc0814ef7	-4.0408893
15	0xc0f2ed45	-7.5914636
16	0xc0e3ba6f	-7.116508
17	0xc0cecc96	-6.462474
18	0xc0e227ae	-7.0673437
19	0xc0d2c622	-6.586686
20	0xc0b4c3dc	-5.6489086
21	0xc0b13e01	-5.538819
22	0xc0eeec3d	-7.4663377
23	0xc0aa4e96	-5.322093
24	0xc098ea05	-4.778567
25	0xc0599817	-3.3999078
26	0xc03c0f74	-2.9384432
27	0xc10fa6cc	-8.978222
28	0xc0b7a2c1	-5.7386174
29	0xc0e6d5b6	-7.2135878
30	0xc0d1b952	-6.553872
31	0xc083f1ec	-4.1232815
32	0xc0d69f7e	-6.7069693
33	0xc0805b9f	-4.011184
34	0xc0fe3fe7	-7.9453006
35	0xba5754d0	-0.0008214237
36	0xc0e7ae0c	-7.239996
37	0xc0a26b9b	-5.0756354
38	0xc0aaa853	-5.3330474
39	0xc11e594a	-9.896799
40	0xc0e462dc	-7.137068
41	0xc0cc7a32	-6.3899164
42	0xc0e4592e	-7.135886
43	0xc0ca8cd5	-6.3296914
44	0xc1208e7c	-10.034786
45	0xc1110b9f	-9.065337
46	0xc0e99480	-7.2993774
47	0xc0f712a8	-7.7210274
48	0xc083b123	-4.115373
49	0xb29a8c6d	-1.7991818e-08
50	0xc0991d55	-4.7848306
51	0xc0f7095c	-7.7198925
52	0xc0e631ff	-7.193603
53	0xc0ac330e	-5.3812323
54	0xc110c6fd	-9.048581
55	0xc0e8ccbd	-7.2749925
56	0xc096683b	-4.7002234
57	0xc0b48603	-5.641359
58	0xc0b1716e	-5.5450964
59	0xc1115f82	-9.085817
60	0xc085696b	-4.1691184
61	0xc0ae5c5d	-5.448775
62	0xc0ce2ba5	-6.4428277
63	0xc0fa1474	-7.8149967
64	0xc1102f71	-9.011582
65	0xc10fab82	-8.979372
66	0xc0a70f9d	-5.220656
67	0xc0f5b75b	-7.6786323
68	0xc096313a	-4.693509
69	0xc10ecc64	-8.9249
70	0xc0f37c68	-7.6089363
71	0xc0cff17c	-6.498228
72	0xc0e3829b	-7.109693
73	0xc0b20a22	-5.563737
74	0xc0d1c8e5	-6.5557733
75	0xc0a1c932	-5.05581
76	0xc0efd3d2	-7.494607
77	0xc0d96468	-6.7935066
78	0xb3450d72	-4.5879865e-08
79	0xc0e62257	-7.191692
80	0xc09b78eb	-4.8585105
81	0xc0ded81d	-6.963881
82	0xc0f3a0b7	-7.6133685
83	0xc0ccef20	-6.40419
84	0x3fc64684	1.549027
85	0xc0b2c31a	-5.586316
86	0xc10afbde	-8.686491
87	0xbffec46c	-1.9903693
88	0xc0d001bd	-6.500212
89	0xc0e4d742	-7.1512766
90	0xc0f4cacd	-7.649756
91	0xc0f09313	-7.5179534
92	0xae9f2d7a	-7.238561e-11
93	0xc0ab94a8	-5.3618965
94	0xb300209a	-2.9831973e-08
95	0xc0f750fd	-7.7286363
96	0xc09c668e	-4.887519
97	0xc0f29f04	-7.581911
98	0xc0f585cd	-7.672583
99	0xc08366d9	-4.1063046

fc4.weight f4 [2, 100]
0	0xc097f388	-4.748478
1	0x4099db41	4.8080144
2	0x405eacca	3.4792962
3	0x40cc3abf	6.382171
4	0x4061a7be	3.5258632
5	0x4091833e	4.547271
6	0xc0eeaf0d	-7.4588685
7	0x409275db	4.5768867
8	0x405ebe8a	3.4803796
9	0xc0f64602	-7.696046
10	0x403e5c7e	2.9743953
11	0xc0e52bf5	-7.161616
12	0xc0887aa3	-4.2649703
13	0xc090387c	-4.506895
14	0x40c504d5	6.15684
15	0x405d9733	3.4623535
16	0x405e1749	3.4701712
17	0xc0de6e56	-6.9509687
18	0x405f6fd8	3.4912014
19	0xc0e029bd	-7.005095
20	0x4061c850	3.527851
21	0x405de471	3.467068
22	0x409204bd	4.5630784
23	0xc0883a36	-4.257106
24	0x409529e0	4.6613617
25	0xc01c4b8e	-2.4421115
26	0xc07fb6fc	-3.9955435
27	0xc0e5cd37	-7.1813006
28	0x4060e5ca	3.5140252
29	0x4067fa7a	3.6246629
30	0xc0e60958	-7.1886406
31	0x40c3a250	6.1135635
32	0x40d80fb5	6.7519174
33	0x40c7128c	6.221014
34	0xc05fea82	-3.4986882
35	0x3d832846	0.06404166
36	0xbf4e42bc	-0.8057058
37	0x40a04efc	5.0096416
38	0xc0ac590d	-5.3858705
39	0xc0889001	-4.2675786
40	0x405ddcf6	3.4666114
41	0xbf84fe28	-1.0390062
42	0x405d3f16	3.4569755
43	0xbf7e9428	-0.9944482
44	0xc08ad74e	-4.3387823
45	0xc0e7bc98	-7.2417717
46	0x40912d9e	4.5368185
47	0x40969c3c	4.7065716
48	0x40c4f3a1	6.15474
49	0xbcbdee44	-0.023184903
50	0xc0991e0c	-4.784918
51	0x405d5d8b	3.4588344
52	0x406247b1	3.5356257
53	0xc086a46a	-4.20757
54	0xc08d2d17	-4.411754
55	0x405dcd8a	3.46567
56	0x409111ab	4.5334067
57	0x40623cc3	3.5349586
58	0x40603a70	3.5035667
59	0xc0e6c9a7	-7.212116
60	0x40c78d2b	6.2359824
61	0xc0aba85d	-5.364302
62	0xc0b8e640	-5.7781067
63	0xc08e9095	-4.455149
64	0xc0f45650	-7.635536
65	0xc08fb1e2	-4.490464
66	0xc08d5204	-4.4162617
67	0x4060ed26	3.5144744
68	0x40937f01	4.6092534
69	0xc0a64472	-5.195855
70	0x405d13ef	3.4543417
71	0xc0dc3c0d	-6.8823304
72	0x4060f77b	3.515105
73	0x405f5749	3.4897025
74	0xc0ec5429	-7.3852735
75	0x40a22977	5.0675616
76	0x40946278	4.63702
77	0x3d24be90	0.040220797
78	0xbd5baa83	-0.05362941
79	0x4062494d	3.535724
80	0xc0990cc9	-4.7828107
81	0x40e0375c	7.0067577
82	0x3f456d6b	0.77120084
83	0x4006a253	2.1036575
84	0xbf0ed0e1	-0.55787474
85	0x406264a5	3.5373929
86	0x3feb0e07	1.8363656
87	0xc07bee59	-3.9364226
88	0xc0e1c99f	-7.055862
89	0x406229e8	3.5338078
90	0x40632346	3.549028
91	0x405e3283	3.471833
92	0xb8070624	-3.2192227e-05
93	0xc0ac000e	-5.3750067
94	0x3d08fa73	0.033441972
95	0xc043e5dd	-3.0609047
96	0xc099a8ab	-4.8018394
97	0x405f5d7b	3.4900806
98	0x4094c01d	4.6484513
99	0x40c4204e	6.1289434
100	0x40994d1e	4.7906637
101	0xc0948b11	-4.641976
102	0xc061b120	-3.5264359
103	0xc0cdfe4f	-6.4372935
104	0xc06531d6	-3.5811667
105	0xc094b362	-4.6468973
106	0x40eff3fd	7.4985337
107	0xc093882c	-4.6103725
108	0xc0623d7c	-3.5350027
109	0x40f238c1	7.569428
110	0xc039d731	-2.9037592
111	0x40e6c35c	7.2113476
112	0x4088f703	4.280153
113	0x409211e6	4.564685
114	0xc0c2a56c	-6.082693
115	0xc0673859	-3.6128142
116	0xc05ef445	-3.483659
117	0x40e22632	7.0671625
118	0xc05fb47a	-3.4953904
119	0x40e41a65	7.128222
120	0xc0627887	-3.5386064
121	0xc05d455a	-3.457358
122	0xc091862b	-4.547628
123	0x4086e0c5	4.2149377
124	0xc094a4ce	-4.6451178
125	0x4020f964	2.5152216
126	0x4081078d	4.0321717
127	0x40e49baf	7.1440043
128	0xc0648a71	-3.5709498
129	0xc05e8da4	-3.477395
130	0x40e5bb2e	7.179099
131	0xc0c34706	-6.10242
132	0xc0d9e7c1	-6.8095403
133	0xc0c63356	-6.1937666
134	0x4067daec	3.622737
135	0x3d8685a8	0.06568462
136	0x3f6c2ee4	0.9225905
137	0xc09ffea4	-4.999834
138	0x40ad6d92	5.4196253
139	0x408b8427	4.359882
140	0xc0637f56	-3.554647
141	0x3f853c90	1.0409107
142	0xc0652963	-3.580651
143	0x3f95663e	1.1671827
144	0x408b57c4	4.3544636
145	0x40e85a08	7.26099
146	0xc093870f	-4.6102366
147	0xc091a879	-4.5518155
148	0xc0c75ccf	-6.230079
149	0xbcbdee4a	-0.023184914
150	0x4098fcc5	4.7808557
151	0xc05fc479	-3.4963667
152	0xc061ed47	-3.5301073
153	0x408680e3	4.2032332
154	0x408d01d4	4.406473
155	0xc064a6d8	-3.5726833
156	0xc093dcb1	-4.62069
157	0xc0639d23	-3.5564659
158	0xc0616398	-3.5217037
159	0x40e2dc47	7.0893893
160	0xc0c39fda	-6.113263
161	0x40acd1c8	5.400608
162	0x40ba10e4	5.814562
163	0x408dfeed	4.437369
164	0x40f3ca3a	7.618436
165	0x4090736a	4.5140886
166	0x408e3929	4.4444776
167	0xc0608cb4	-3.5085878
168	0xc0918937	-4.548
169	0x40abc6cf	5.3680186
170	0xc06715ad	-3.610698
171	0x40d83dcf	6.757545
172	0xc05e3d25	-3.472482
173	0xc05ee1c4	-3.4825296
174	0x40ec127b	7.377256
175	0xc09e6ee7	-4.951038
176	0xc09138ad	-4.5381684
177	0xbe57eb67	-0.21085893
178	0xbd5baa8f	-0.053629454
179	0xc0617835	-3.5229619
180	0x409b40fa	4.8516817
181	0xc0deec10	-6.966316
182	0xbf59d9bc	-0.8509786
183	0xc000077b	-2.0004566
184	0x3f0823a2	0.5317937
185	0xc06145fd	-3.5198967
186	0xbfe8a3d3	-1.8174995
187	0x407c4cab	3.9421794
188	0x40e1b0c1	7.0528264
189	0xc05ed84e	-3.4819522
190	0xc05d68e2	-3.4595265
191	0xc066cace	-3.6061282
192	0xb8070628	-3.219224e-05
193	0x40acb88d	5.397528
194	0x3d08fa72	0.03344197
195	0x404332b2	3.0499692
196	0x409ca83a	4.8955355
197	0xc0639fd1	-3.5566294
198	0xc091816f	-4.54705
199	0xc0c491e4	-6.142809

fc4.bias f4 [2]
0	0x3f541948	0.82851076
1	0xbf3e73e5	-0.7439559
